{"Setting": "ResNet1D_Wind_speed_data_ftS_sl32_ll32_pl64_lr0.0001_bs64_itr0", "model": "ResNet1D", "data": "Wind_speed_data", "features": "S", "Sequence Length": 32, "label length": 32, "prediction length": 64, "learning rate": 0.0001, "batch size": 64, "_timestamp": 1663284897.602603, "_runtime": 3.750633955001831, "_step": 1, "Model parameters": "ResNet1D(\n  (first_block_conv): MyConv1dPadSame(\n    (conv): Conv1d(32, 4, kernel_size=(3,), stride=(1,))\n  )\n  (first_block_bn): BatchNorm1d(4, eps=1e-05, momentum=0.1, affine=True, track_running_stats=True)\n  (first_block_relu): ReLU()\n  (basicblock_list): ModuleList(\n    (0): BasicBlock(\n      (bn1): BatchNorm1d(4, eps=1e-05, momentum=0.1, affine=True, track_running_stats=True)\n      (relu1): ReLU()\n      (do1): Dropout(p=0.5, inplace=False)\n      (conv1): MyConv1dPadSame(\n        (conv): Conv1d(4, 4, kernel_size=(3,), stride=(1,))\n      )\n      (bn2): BatchNorm1d(4, eps=1e-05, momentum=0.1, affine=True, track_running_stats=True)\n      (relu2): ReLU()\n      (do2): Dropout(p=0.5, inplace=False)\n      (conv2): MyConv1dPadSame(\n        (conv): Conv1d(4, 4, kernel_size=(3,), stride=(1,))\n      )\n      (max_pool): MyMaxPool1dPadSame(\n        (max_pool): MaxPool1d(kernel_size=1, stride=1, padding=0, dilation=1, ceil_mode=False)\n      )\n    )\n    (1): BasicBlock(\n      (bn1): BatchNorm1d(4, eps=1e-05, momentum=0.1, affine=True, track_running_stats=True)\n      (relu1): ReLU()\n      (do1): Dropout(p=0.5, inplace=False)\n      (conv1): MyConv1dPadSame(\n        (conv): Conv1d(4, 4, kernel_size=(3,), stride=(2,))\n      )\n      (bn2): BatchNorm1d(4, eps=1e-05, momentum=0.1, affine=True, track_running_stats=True)\n      (relu2): ReLU()\n      (do2): Dropout(p=0.5, inplace=False)\n      (conv2): MyConv1dPadSame(\n        (conv): Conv1d(4, 4, kernel_size=(3,), stride=(1,))\n      )\n      (max_pool): MyMaxPool1dPadSame(\n        (max_pool): MaxPool1d(kernel_size=2, stride=2, padding=0, dilation=1, ceil_mode=False)\n      )\n    )\n    (2): BasicBlock(\n      (bn1): BatchNorm1d(4, eps=1e-05, momentum=0.1, affine=True, track_running_stats=True)\n      (relu1): ReLU()\n      (do1): Dropout(p=0.5, inplace=False)\n      (conv1): MyConv1dPadSame(\n        (conv): Conv1d(4, 4, kernel_size=(3,), stride=(1,))\n      )\n      (bn2): BatchNorm1d(4, eps=1e-05, momentum=0.1, affine=True, track_running_stats=True)\n      (relu2): ReLU()\n      (do2): Dropout(p=0.5, inplace=False)\n      (conv2): MyConv1dPadSame(\n        (conv): Conv1d(4, 4, kernel_size=(3,), stride=(1,))\n      )\n      (max_pool): MyMaxPool1dPadSame(\n        (max_pool): MaxPool1d(kernel_size=1, stride=1, padding=0, dilation=1, ceil_mode=False)\n      )\n    )\n    (3): BasicBlock(\n      (bn1): BatchNorm1d(4, eps=1e-05, momentum=0.1, affine=True, track_running_stats=True)\n      (relu1): ReLU()\n      (do1): Dropout(p=0.5, inplace=False)\n      (conv1): MyConv1dPadSame(\n        (conv): Conv1d(4, 4, kernel_size=(3,), stride=(2,))\n      )\n      (bn2): BatchNorm1d(4, eps=1e-05, momentum=0.1, affine=True, track_running_stats=True)\n      (relu2): ReLU()\n      (do2): Dropout(p=0.5, inplace=False)\n      (conv2): MyConv1dPadSame(\n        (conv): Conv1d(4, 4, kernel_size=(3,), stride=(1,))\n      )\n      (max_pool): MyMaxPool1dPadSame(\n        (max_pool): MaxPool1d(kernel_size=2, stride=2, padding=0, dilation=1, ceil_mode=False)\n      )\n    )\n  )\n  (final_bn): BatchNorm1d(4, eps=1e-05, momentum=0.1, affine=True, track_running_stats=True)\n  (final_relu): ReLU(inplace=True)\n  (do): Dropout(p=0.5, inplace=False)\n  (dense): Linear(in_features=4, out_features=64, bias=True)\n  (softmax): Softmax(dim=1)\n)"}